…
 metrics = ['accuracy'])\nmodel.summary()\n# Store training stats\nmodel.fit(x=new_cover1,y=None, batch_size=32, epochs=1, verbose=1, callbacks=None, validation_split=0, validation_data=None, shuffle=True, class_weight=None, sample_weight=None, initial_epoch=0, steps_per_epoch=None, validation_steps=None)\n</code></pre>\n\n<p>and it is giving error:</p>\n\n<pre><code>_________________________________________________________________\nLayer (type)                 Output Shape              Param #   \n=================================================================\nconv2d (Conv2D)              (None, 16, 16, 64)        1769536   \n_________________________________________________________________\nbatch_normalization (BatchNo (None, 16, 16, 64)        256       \n_________________________________________________________________\nactivation (Activation)      (None, 16, 16, 64)        0         \n_________________________________________________________________\nconv2d_1 (Conv2D)            (None, 16, 16, 64)        36928     \n_________________________________________________________________\nbatch_normalization_1 (Batch (None, 16, 16, 64)        256       \n_________________________________________________________________\nactivation_1 (Activation)    (None, 16, 16, 64)        0         \n_________________________________________________________________\nconv2d_2 (Conv2D)            (None, 16, 16, 64)        36928     \n_________________________________________________________________\nbatch_normalization_2 (Batch (None, 16, 16, 64)        256       \n_________________________________________________________________\nactivation_2 (Activation)    (None, 16, 16, 64)        0         \n_________________________________________________________________\nconv2d_3 (Conv2D)            (None, 16, 16, 64)        36928     \n_________________________________________________________________\nbatch_normalization_3 (Batch (None, 16, 16, 64)        256       \n_________________________________________________________________\nactivation_3 (Activation)    (None, 16, 16, 64)        0         \n=================================================================\nTotal params: 1,881,344\nTrainable params: 1,880,832\nNon-trainable params: 512\n_________________________________________________________________\n\n---------------------------------------------------------------------------\nIndexError                                Traceback (most recent call last)\n&lt;ipython-input-
…
    {
        "title": "Visualizing Feature maps: IndexError: too many indices for array",
        "body": "<p>Following this tutorial I am trying to visualize feature maps.</p>\n<p>My model looks as follows:</p>\n<pre><code>model.summary()\nModel: &quot;model_3&quot;\n__________________________________________________________________________________________________\nLayer (type)                    Output Shape         Param #     Connected to                     \n==================================================================================================\ninput_5 (InputLayer)            [(None, 224, 224, 3) 0                                            \n__________________________________________________________________________________________________\nefficientnet-b0 (Functional)    (None, 7, 7, 1280)   4049564     input_5[0][0]                    \n__________________________________________________________________________________________________\nflatten_4 (Flatten)             (None, 62720)        0           efficientnet-b0[0][0]            \n__________________________________________________________________________________________________\nbranch_0_Dense_16000 (Dense)    (None, 256)          16056576    flatten_4[0][0]                  \n__________________________________________________________________________________________________\nbranch_1_Dense_16000 (Dense)    (None, 256)          16056576    flatten_4[0][0]                  \n__________________________________________________________________________________________________\nbranch_2_Dense_16000 (Dense)    (None, 256)          16056576    flatten_4[0][0]                  \n__________________________________________________________________________________________________\nbranch_3_Dense_16000 (Dense)    (None, 256)          16056576    flatten_4[0][0]                  \n__________________________________________________________________________________________________\nbranch_4_Dense_16000 (Dense)    (None, 256)          16056576    flatten_4[0][0]                  \n__________________________________________________________________________________________________\nbranch_5_Dense_16000 (Dense)    (None, 256)          16056576    flatten_4[0][0]                  \n__________________________________________________________________________________________________\nbranch_6_Dense_16000 (Dense)    (None, 256)          16056576    flatten_4[0][0]                  \n__________________________________________________________________________________________________\nbranch_0_output (Dense)         (None, 35)           8995        branch_0_Dense_16000[0][0]       \n__________________________________________________________________________________________________\nbranch_1_output (Dense)         (None, 35)           8995        branch_1_Dense_16000[0][0]       \n__________________________________________________________________________________________________\nbranch_2_output (Dense)         (None, 35)           8995        branch_2_Dense_16000[0][0]       \n__________________________________________________________________________________________________\nbranch_3_output (Dense)         (None, 35)           8995        branch_3_Dense_16000[0][0]       \n__________________________________________________________________________________________________\nbranch_4_output (Dense)         (None, 35)           8995        branch_4_Dense_16000[0][0]       \n__________________________________________________________________________________________________\nbranch_5_output (Dense)         (None, 35)           8995        branch_5_Dense_16000[0][0]       \n__________________________________________________________________________________________________\nbranch_6_output (Dense)         (None, 35)           8995        branch_6_Dense_16000[0][0]       \n__________________________________________________________________________________________________\nconcatenate_4 (Concatenate)     (None, 245)          0           branch_0_output[0][0]            \n                                                                 branch_1_output[0][0]            \n                                                                 branch_2_output[0][0]            \n                                                                 branch_3_output[0][0]            \n                                                                 branch_4_output[0][0]            \n                                                                 branch_5_output[0][0]            \n                                                                 branch_6_output[0][0]            \n__________________________________________________________________________________________________\nreshape_4 (Reshape)             (None, 7, 35)        0           concatenate_4[0][0]              \n==================================================================================================\nTotal params: 116,508,561\nTrainable params: 116,466,545\nNon-trainable params: 42,016\n</code></pre>\n<p>I now would like to visualize the layer with index 10: <code>10 branch_0_output (None, 35)</code></p>\n<pre><code>3 branch_0_Dense_16000 (None, 256)
…
